models/linear_mnist_model.pth (torch, 440729 bytes, 6 tensors)

linear_1.weight f4 [128, 784]
000000 c1 f1 f0 3c 9f 0c 02 3d e5 1d cd bb bb 02 0f 3d
       0.029412152 0.031750318 -0.006259667 0.034914713
000010 6a 5d bb bb ff 99 18 3c d5 5a 7a bc 91 15 bd 3c
       -0.005717923 0.009314059 -0.015280445 0.023081573
000020 92 96 09 3d 5d 60 c5 bc 36 c8 07 3d 46 0a 10 3c
       0.03359086 -0.024093801 0.03314992 0.008791512
000030 0a 24 f1 3c 62 74 13 3c 98 57 9e 3c 25 5e 40 bb
       0.02943613 0.008999916 0.019328877 -0.002935299
000040 29 cd f2 3c 3e 07 f2 3b 9a a4 6e bc 2f ad 37 3c
       0.029638844 0.0073861172 -0.014565611 0.011210724
000050 5e 12 6b bc 0f 63 08 bb c5 22 4b bc 7a 58 d3 3c
       -0.014347641 -0.0020810997 -0.012398426 0.025799025
000060 4e af d5 bc 60 3b 6b bc 6d b4 02 bc 1e a7 9e bc
       -0.026084568 -0.014357418 -0.007977587 -0.019366797
000070 25 81 b3 3b 34 da 07 bd 30 be 0c 3d 9d 44 e7 bc
       0.0054780417 -0.03316708 0.034361064 -0.02823096
000080 73 2b f3 3c 11 76 04 3c 70 44 a3 bb 17 5d 03 3d
       0.029683804 0.00808479 -0.0049825236 0.0320712
000090 60 e9 6a 3c 7a 2f 0e 3d 5e e4 66 3c de 78 38 3b
       0.0143378675 0.034713246 0.014092533 0.0028148214
0000a0 81 f5 0a 3d 3d dc 7b 3c dd 8d 83 3c 5d e5 2e 3d
       0.033925537 0.015372333 0.016058857 0.042699207
0000b0 b3 b7 10 3d 45 92 ff bb fd 9b 03 3d fb 33 f5 3c
       0.03533144 -0.007799419 0.032131184 0.029932013
0000c0 05 c7 0c 3d f0 e4 34 bc b3 b6 d7 bc a4 25 2b bc
       0.034369487 -0.011040911 -0.026332235 -0.010445986
0000d0 87 25 cf bc 02 aa 00 3d 59 10 4b 3c f8 72 8a 3c
       -0.02528645 0.031412132 0.012394034 0.016900524
0000e0 21 95 5b 3c c1 c3 c2 3a bb 42 f6 3c 6e 67 bd bc
       0.013402254 0.0014859365 0.030061116 -0.023120608
0000f0 ea ac a3 3b b6 66 b0 bc 1a 85 cb 3c 9b 84 9a 3c
       0.004994978 -0.021533351 0.024843741 0.01886206
000100 4e 06 37 3d 2b 8c d4 3c d8 a0 b6 3d 4b f1 9b 3d
       0.044683747 0.025945744 0.08917397 0.07614382
000110 6d 59 6c 3d 02 46 61 3d 0e 13 21 3e 64 e1 1a 3e
       0.05770247 0.054998405 0.15729925 0.15125042
000120 7f 3f 04 3e 5b 83 0c 3d de e6 03 3d d7 dc 2f 3c
       0.12914847 0.034304958 0.032202594 0.010733805
000130 af c8 8d 3b aa 5a 3e 3d 95 8f 34 3d 1c f0 3d 3d
       0.004326902 0.046473183 0.044082243 0.046371564
000140 dd d9 5b bc 15 a1 be bc 8f 7e ac 3c 10 fe 49 bc
       -0.013418642 -0.02327017 0.021056442 -0.01232864
000150 a1 d4 c2 3c 19 a9 d0 bb 3a 1b 8f 3c 38 e4 d2 bc
       0.02378303 -0.0063678143 0.017469037 -0.025743589
000160 9d 13 41 bc 86 df 07 3d bd 56 a9 3d 2d 6e 87 3d
       -0.011784461 0.033172153 0.08268497 0.06612811
000170 19 92 8f 3d fb 9e 9c 3d 6c 8f 2d bc 6c 7a e6 bc
       0.07010288 0.076475106 -0.0105932765 -0.028134547
000180 4a 1d f4 3b 68 eb a4 ba d8 58 b0 bc 82 ab 44 3c
       0.0074497806 -0.0012582364 -0.021526739 0.012003781
000190 a2 be 2b 3d 72 ac 9c 3d 63 4b b5 3d dc 26 79 3d
       0.04192985 0.07650079 0.088522695 0.060828075
0001a0 4e c4 01 3d 21 4f 2a 3d 02 2f c0 3b 4e 77 50 3c
       0.03168135 0.04157937 0.005864979 0.012723757
0001b0 fc 5b 4a bc f1 e6 a2 bc 0a ce 19 3d 3f 0b 11 3c
       -0.012351032 -0.019885512 0.03755001 0.008852779
0001c0 9a d7 56 3c 58 9d ff bc 3a e6 1d bd a1 1a 5d bc
       0.013112927 -0.031202957 -0.03854964 -0.013495118
0001d0 df 5d 90 3c 9a b8 e9 3c c4 8a a7 3d 07 b6 44 3d
       0.017622886 0.028530408 0.08180764 0.048025157
0001e0 e9 a9 77 3d d6 b0 0a 3c dd a6 b8 3b 68 0c c4 bd
       0.060464773 0.008465013 0.005635126 -0.09572679
0001f0 b2 07 7f bd e3 73 9f 3b a3 a3 80 bc 29 a8 4c bd
       -0.0622632 0.0048661097 -0.015703028 -0.049965058
000200 ce f8 de 3c 56 ea 87 3b 3f 0a ca 3c e6 34 9d 3d
       0.027218249 0.004147808 0.024663089 0.07676105
000210 87 d7 54 bd 5a 9a 00 bd dd b3 c9 bd ab a1 20 bd
       -0.051963355 -0.0313972 -0.09848759 -0.03921668
000220 f7 17 94 bd a4 f4 26 bd 13 fb 48 3c 3f 14 ae bb
       -0.072311334 -0.04076065 0.012266892 -0.005312472
000230 c0 2a 83 3c 26 d7 de bc 20 e0 db 3c 7a 15 dc bc
       0.016011596 -0.0272022 0.02684027 -0.02686571
000240 fc 95 ec 3c b9 62 c0 3d 63 0c cc 3d 97 38 26 3d
       0.028880112 0.0939383 0.099633 0.040581312
000250 ed db d4 3d 3b 42 96 bb c0 eb da bd 82 cb 24 be
       0.1039351 -0.004585532 -0.10689497 -0.16093257
000260 af 15 26 bd 5d b2 9f bd d0 99 0a 3c 1e c6 29 bd
       -0.040548023 -0.07797692 0.008459523 -0.041448705
000270 fd 06 81 3d cd 31 30 3d f5 7d 7e bd 7f ed c2 bd
       0.06300161 0.043016244 -0.06213184 -0.09517955
000280 79 e5 97 bd 3a eb be bd ef f5 16 be 93 83 e1 bd
       -0.07416815 -0.0932221 -0.14742254 -0.11011424
000290 10 3d 7e bd 64 4a b1 bc fa 27 41 bc 3b 73 09 3d
       -0.062069952 -0.021641918 -0.011789316 0.033557158
0002a0 50 fb 24 3c 42 9c 90 bc 0b 64 a1 bc 99 d7 f6 3b
       0.010069683 -0.017652635 -0.019701025 0.0075330255
0002b0 75 ff 8d 3d 33 3c 98 3d 4d 74 67 39 9b bb db bd
       0.0693349 0.07433357 0.00022073202 -0.10729142
0002c0 36 35 ca bd cc d8 81 bd 6f 40 f1 bd 9b 86 a2 bd
       -0.098734304 -0.06340179 -0.11779868 -0.0793583
0002d0 94 3c 97 bd 6c 22 0e be a1 6d a2 bd 87 2a 61 bd
       -0.07384601 -0.13880318 -0.07931066 -0.054972198
0002e0 c7 5e b8 bc 19 ef 00 3d 65 ab 92 bd 94 da 18 be
       -0.02250613 0.03147802 -0.07161597 -0.14927131
0002f0 a9 b6 5f be b7 93 16 be 4c aa 36 be 80 7d 10 be
       -0.21847023 -0.14704786 -0.178384 -0.14110374
000300 ca 4f 53 bb 22 9e d2 3c 78 d0 bf b8 95 e0 43 bb
       -0.0032243603 0.02571017 -9.14642e-05 -0.00298885
000310 34 43 2c 3b 78 68 23 3b 7a 5f 56 3c 71 1f 83 3c
       0.0026285173 0.0024934094 0.013084287 0.016006203
000320 4f 96 13 3d 54 cb 92 3d 07 24 80 3b 69 23 3c 3d
       0.036032017 0.07167688 0.003910545 0.045932207
000330 91 c4 bb bd ad 79 c0 bd a7 16 a8 bd 7c d3 03 be
       -0.091683514 -0.09398208 -0.082074456 -0.12873644
000340 9b 32 e3 bd f9 26 3b be da e4 25 bd 8b 5f ed bb
       -0.110936366 -0.18276586 -0.040501453 -0.0072440556
000350 f2 34 06 be a1 2d ac bc 99 14 56 bd 63 d0 32 be
       -0.13106135 -0.021017851 -0.052265737 -0.17462306
000360 69 95 52 be ca f3 36 be 57 56 4c be 4d d7 15 be
       -0.20564808 -0.17866436 -0.19954811 -0.14632912
000370 29 14 04 bd 0e 63 03 3d 43 73 4c bc 8c fc 88 bb
       -0.03224579 0.032076888 -0.012478652 -0.0041804966
000380 75 e4 08 bd 9b bb f1 3c f0 9f 30 3d 7c d1 3a 3d
       -0.033421 0.029508403 0.04312128 0.045609936
000390 f0 6d f8 3d ca 08 bc 3d 36 57 7a bb 1e 45 9b 3d
       0.12130344 0.09181364 -0.0038198954 0.075815424
0003a0 60 a1 37 bd 84 9b 93 bd 99 5e 8a bd 85 6f a7 bd
       -0.044831634 -0.072073966 -0.06756324 -0.081755675
0003b0 77 f2 1d be e1 d0 55 be f2 7c f4 bd 87 7e 03 be
       -0.15424524 -0.20880462 -0.11937894 -0.12841235
0003c0 0e 9b 03 be 63 89 33 be 9c 85 64 be 18 5e 8e be
       -0.12852117 -0.17532878 -0.22316593 -0.27806163
0003d0 bd 35 00 be 05 41 00 be a2 e8 0f be 04 d7 1e bd
       -0.125205 -0.12524803 -0.14053586 -0.038779274
0003e0 90 32 70 bd 0d 70 3b bb 20 9e dc bc 30 04 d1 bc
       -0.05864197 -0.0028600723 -0.026930869 -0.025514692
0003f0 74 41 82 bb 39 63 05 bc ce df d8 3c b7 5e 43 3c
       -0.003975088 -0.008141332 0.026473906 0.011924437

linear_1.bias f4 [128]
000000 1c f6 42 bb 4f b6 50 3c 15 db 0a 3b 10 bf 76 3b
       -0.0029748743 0.012738778 0.0021187712 0.0037650503
000010 4b 15 e0 bc 1b 64 cc 3c 25 c9 4e 3d be d7 9b bc
       -0.027353903 0.024950078 0.050484795 -0.019023772
000020 16 7c d4 bc c6 b8 a8 bb 6f 31 9b bc 39 bb 29 bb
       -0.025938075 -0.00514898 -0.01894447 -0.0025898947
000030 65 9a 8b 3c d9 66 35 bd 82 45 d8 bc ee a8 1b bc
       0.017041394 -0.044287536 -0.026400331 -0.009500725
000040 ca 6d d5 bc 64 bd 21 bd ed ec 30 3c 4c 3e 40 3d
       -0.026053328 -0.039487258 0.010798675 0.04693441
000050 61 3a 8e 39 3c 9e ad ba 49 b3 72 3d d9 d2 fc bb
       0.00027127846 -0.001324601 0.05925301 -0.0077155647
000060 f1 b1 0c bd 35 f0 90 bb c4 bb db bc 88 06 98 3b
       -0.034349386 -0.004423166 -0.026822932 0.0046394505
000070 3c 53 16 bd ae fe 83 bd 0e 00 1c 3c b8 e8 ae 3c
       -0.036700472 -0.06445061 0.009521497 0.021351203
000080 46 82 06 3b 8d 98 3c bd 0f b2 07 3d c9 9b 40 3c
       0.0020524426 -0.04604392 0.033128794 0.011755892
000090 70 4a 2a bc 94 82 8c 3c 1d 7c 4b ba c4 5a a7 bc
       -0.010393724 0.017152108 -0.000776233 -0.020429023
0000a0 29 32 de 3c 7c a9 57 bc a0 e9 ff bc 93 01 55 3d
       0.027123528 -0.013162967 -0.03123933 0.052003454
0000b0 81 7f 97 bc bc 19 7b ba ec 87 78 3c b5 74 4b bc
       -0.018493416 -0.0009578725 0.015169125 -0.012417962
0000c0 50 b0 86 bc 3e a8 dd bc 3d 2a b4 3c 32 93 12 bc
       -0.016441494 -0.027057763 0.021992797 -0.008946227
0000d0 6b c6 e3 bc 87 4d 66 3c 35 5c 8f bb 03 89 61 bc
       -0.027804574 0.01405657 -0.0043750056 -0.013765576
0000e0 c4 6e 8f 3a ba a5 46 bc 31 27 c9 3b cd e8 e5 bc
       0.0010943045 -0.012124473 0.006138705 -0.02806511
0000f0 75 d4 ef 3c 72 7f 8a bc 4d 69 18 3c 32 0b 2a 3d
       0.029276112 -0.016906474 0.009302449 0.041514583
000100 74 08 30 bd 11 08 06 3c 89 31 0b bd 0b 8d d6 3c
       -0.04297681 0.008180634 -0.033982787 0.026190301
000110 99 4e ec 3c 01 5d 0f 3d 4c 50 d0 3b 3e ae c1 3c
       0.028846072 0.035000805 0.0063572284 0.023642655
000120 ce 02 f6 3c 0e 7e 9c bc 35 4a 4d bc 74 11 1d 3b
       0.030030634 -0.019103076 -0.012529899 0.0023966702
000130 50 68 97 bc 65 7a 29 bc 42 a7 15 bc 51 3e 9c 3c
       -0.018482357 -0.010344123 -0.009134116 0.019072684
000140 c4 93 00 3c 66 f2 cd bc ca 8e ef bc 74 96 01 bd
       0.00784773 -0.025139999 -0.029242892 -0.031637624
000150 ce 6b 26 3c e1 8c 2b 3d 8c e3 ee bc 0a 63 00 bd
       0.010157539 0.0418824 -0.029161237 -0.03134445
000160 28 62 ef bc 8f 8d 06 bc 0e 91 00 bd c9 ef f3 bc
       -0.02922161 -0.008212461 -0.031388335 -0.029777424
000170 71 03 02 3c 92 5b d1 3c 4b f3 83 3c 4b 29 45 bd
       0.007935391 0.02555636 0.016107222 -0.048135083
000180 51 a8 82 3c 24 b9 bf 3c 8b 33 cd bc a8 2e 9e 3b
       0.0159494 0.023403712 -0.025048992 0.004827339
000190 b5 15 47 bd c1 55 d1 3b b9 13 3c bb 46 9e 70 bc
       -0.048604686 0.0063883965 -0.002869828 -0.014686173
0001a0 48 50 81 3c 7d 32 0d bd e2 b8 4d bc c5 e9 3a 3c
       0.015785351 -0.034471978 -0.0125562865 0.011408274
0001b0 7c 56 ee 3c 44 10 5a 3c 46 d9 ff 3c 2f 92 e1 ba
       0.029093973 0.013309542 0.031231534 -0.0017209704
0001c0 d4 5a 8f bc a2 ff e3 3c de 1f ec 3c 99 1c 00 3d
       -0.017499365 0.027831856 0.02882379 0.031277273
0001d0 45 33 99 bc d6 83 ef bc 1f 9c 7b bc 9e 5f 64 3c
       -0.018701205 -0.029237669 -0.015357046 0.013938813
0001e0 c2 3f 15 bd 86 18 c7 bc 6c 22 8d 3c a7 9e 3e bc
       -0.036437757 -0.024303686 0.017228328 -0.011634505
0001f0 58 35 17 3d 02 2a 3f bd e4 12 90 bc 50 04 68 3c
       0.036916107 -0.04667092 -0.017587133 0.014161184

linear_2.weight f4 [64, 128]
000000 94 05 e4 bd 0c 78 77 bc 37 15 49 3e b1 1d 80 3d
       -0.111338764 -0.015104305 0.19636999 0.06255663
000010 c0 a6 8b 3d 77 a1 18 bd fa 28 20 be 82 c9 bf 3c
       0.068189144 -0.03726336 -0.15640631 0.023411516
000020 f5 31 32 3c 81 1a 70 bd 1c a3 e8 3c 7e ab 32 be
       0.0108761685 -0.058619026 0.02839809 -0.17448232
000030 ce 10 cd bd c5 d0 41 bd 97 40 df 3d 6d 90 f2 3d
       -0.10012971 -0.04731824 0.109009914 0.11843953
000040 62 8d 05 bd 41 cb a4 3d 11 18 34 3e 86 06 1b 3d
       -0.032605536 0.0804658 0.17587306 0.037848018
000050 98 0f 8d bc 56 a3 b3 bd db 28 12 3d db 77 2f 3e
       -0.01721935 -0.08771388 0.035683494 0.17135565
000060 38 f9 9f bc 8c 74 ee 3d 14 8f 03 3d d7 7e 80 3d
       -0.019528016 0.11643323 0.03211887 0.06274193
000070 83 26 7f bc 57 65 d4 3c 28 8b 97 bc a4 f2 aa 3d
       -0.015573147 0.025927229 -0.018498972 0.08347061
000080 98 b1 09 3d 5e 74 a5 3d f3 09 ed bd f0 23 fc bc
       0.033616632 0.08078836 -0.11574163 -0.030778855
000090 e3 ef 47 3e b8 8c da bd 08 00 b6 3d 10 f2 d3 3d
       0.19525103 -0.10671371 0.08886725 0.10348904
0000a0 f6 52 b4 3d f2 df 3c 3d 5a 9a 8a 3d e0 6c d3 bd
       0.08804886 0.04611201 0.067677215 -0.10323501
0000b0 4a fc 3f 3e 59 6e ab bd 6f 7f 04 bb 37 4d 32 3d
       0.18748584 -0.083706565 -0.0020217558 0.04353067
0000c0 e8 53 ec bc 02 1c f9 3c 63 d9 ee bb f8 39 78 3d
       -0.028848603 0.030408863 -0.007289098 0.06060216
0000d0 31 7d 60 be c9 ba 9e bd ba 51 da 3d e4 05 a6 bc
       -0.21922757 -0.0775047 0.10660119 -0.02026648
0000e0 97 25 de bc 26 af cd 3d 16 fc 6a bd f2 73 4d 3d
       -0.027117534 0.100431725 -0.057369314 0.050159402
0000f0 e2 03 f3 3c d1 a2 84 3d 52 b3 b5 3d eb 4b 1a 3c
       0.029664937 0.06476367 0.08872093 0.009417514
000100 ce a6 e3 bc b9 c0 82 be 4e 2d 77 3d d2 a3 56 be
       -0.0277895 -0.2553766 0.06034594 -0.2096093
000110 81 67 a2 3d fd b7 eb bd 4f b3 17 be 4d 3a 01 3d
       0.07929898 -0.11509702 -0.14814495 0.03154974
000120 e1 38 1c 3d 83 c1 5a bd 1f 73 4f bc 1d 65 8e 3d
       0.03814018 -0.053407203 -0.012661724 0.069528796
000130 d9 a9 47 be 84 ac 8d 3d d5 14 a4 bc 9a 5b 82 3b
       -0.19498385 0.0691767 -0.020029465 0.003978205
000140 c4 66 24 3c 36 5c 93 3d 99 87 04 be 0f 37 4b 3b
       0.010034267 0.07195322 -0.12942351 0.003100816
000150 4e 1b 19 3d 35 38 65 3c d4 8d 76 ba 7a 4f eb 3d
       0.037379555 0.013990452 -0.00094052893 0.11489768
000160 55 68 b0 bd 11 2f 33 3c 3a d3 17 be 29 ab 82 bd
       -0.0861365 0.0109365145 -0.1482667 -0.063803025
000170 3f cd 3e 3e 16 86 33 bd 55 9b 20 3d 24 4e 7e 3d
       0.18632983 -0.043829046 0.039210636 0.06208624
000180 fb a8 e7 3c 21 f2 b1 3d d3 d1 82 bd bb 20 04 be
       0.028278818 0.086887605 -0.06387677 -0.1290311
000190 0e 0a 0d be 3f f1 4f bd ca c4 5b 3c 2b 2c c5 bd
       -0.13773367 -0.05076718 0.013413617 -0.09627565
0001a0 f6 83 af 3c c4 d7 cf bd c3 2c f3 3b 54 e8 d4 bd
       0.021425229 -0.10148576 0.0074211075 -0.103958756
0001b0 ee 1a 3b bd 85 ab 43 be ce 35 1d bd d6 7c b2 bc
       -0.04567998 -0.19108398 -0.03838139 -0.021788042
0001c0 50 a9 d1 3d 53 ad 8c 3d 2b 49 1f 3a e4 99 30 bc
       0.10237372 0.068689965 0.00060762715 -0.010778878
0001d0 9a a4 ac ba 41 17 e0 3d e3 e6 c9 bd 6d e3 00 3d
       -0.0013171614 0.10941935 -0.09858491 0.03146689
0001e0 bb e5 47 be af bd 55 bb ad 67 52 3c 8b 6b 9a 3d
       -0.19521229 -0.003261428 0.012842101 0.075400434
0001f0 7e db bb 3c c4 a4 0c bd 30 e6 53 3d 73 e1 62 3c
       0.02293181 -0.03433682 0.051733196 0.013847697
000200 7f c0 f6 3d 11 a2 04 3e 99 c4 78 3d a5 de da bc
       0.120484345 0.12952448 0.060734365 -0.026717493
000210 3c 9e 82 be 8d 03 42 be df 70 b2 3d 96 76 5f bd
       -0.25511348 -0.18946667 0.08712935 -0.05455645
000220 d5 aa eb 3c dd 6b 87 3d 7e 7c 2a 3d 5a be 15 be
       0.028767982 0.0661237 0.04162263 -0.14623395
000230 f4 e0 37 bd ed ea 48 bd cc 0f cf 3d 81 43 39 3e
       -0.044892266 -0.049052168 0.10110435 0.18092157
000240 ab 3b 83 be cc fe 0d 3e 8d 21 3b 3e 11 fd d8 bc
       -0.2563146 0.13866729 0.18274517 -0.026487859
000250 ad 9b 00 3d e3 51 bb be a8 d4 5f bd 6f 9f 22 3d
       0.031398464 -0.36585912 -0.054646164 0.03970283
000260 76 87 a8 bc 80 35 55 3e 54 e2 95 bb fe 2a e9 3d
       -0.020572405 0.2082119 -0.0045740996 0.11385153
000270 ea b7 1f 3e 6e e1 cb 3d ac 35 75 3d cf 71 c7 3d
       0.15597501 0.09955107 0.05986564 0.09738504
000280 e8 4b 1c 3e 18 0d 96 be 32 7a d9 bc b5 28 a8 bc
       0.15263331 -0.29306865 -0.026547525 -0.020527223
000290 b7 aa 39 3e dc 22 cd 3c b4 7b 24 3a ee 31 ce 3d
       0.18131529 0.025041036 0.0006274537 0.10068117
0002a0 f2 4f 2a 3d 4f cb 45 bd fa aa 5f 3c e8 72 c8 bc
       0.041580148 -0.048289593 0.013651604 -0.024468854
0002b0 95 32 9c bd 29 ea 41 be 29 34 cf 3d 72 a1 d6 bc
       -0.07626835 -0.18936981 0.10117371 -0.02620003
0002c0 1f cb 73 3c 63 53 bb 3d e3 63 ac bd 77 a2 41 bb
       0.014879971 0.09146764 -0.084174894 -0.00295463
0002d0 c8 47 40 be 96 48 d6 bc e1 dd 8b bd b0 0c 4e 3b
       -0.18777382 -0.026157659 -0.068294294 0.0031440668
0002e0 e0 91 57 3d 34 77 b8 bd 13 14 04 3e 00 eb 5c bd
       0.05262935 -0.09007111 0.12898283 -0.05393505
0002f0 bb d1 9b bd 67 95 87 bd 29 c3 cb 3d d0 e2 de bc
       -0.07608362 -0.06620293 0.09949333 -0.027207762
000300 51 8a 68 be 6e cc f4 3d 87 c3 73 bc 0b 69 08 be
       -0.22709014 0.11953054 -0.01487816 -0.1332132
000310 32 e2 97 3d 82 c4 b7 3c 69 e5 4b 3d 33 6c 1f bd
       0.0741619 0.02243257 0.04977933 -0.038921546
000320 56 15 27 3e 72 77 9a 3d 6b 7f 3c be e6 e1 b6 3d
       0.16316733 0.07542314 -0.18407981 0.089298055
000330 25 97 af bd f9 1f 8b 3d 87 4c 2b 3d 30 99 e6 3c
       -0.085737504 0.06793208 0.04182103 0.028149217
000340 84 cc 4e 3e 13 93 db 3c af 6a fe 3d 6f 88 81 3d
       0.20195204 0.026803529 0.12422692 0.06324851
000350 bc 8a 84 bd 4f 36 02 3e 1e 81 ed 3d c5 50 c6 3d
       -0.06471774 0.1271603 0.11596893 0.09683374
000360 9c 87 69 ba ce 4c 27 3d 19 49 17 3e 71 7c 1d 3e
       -0.0008908452 0.04084473 0.14773978 0.15379502
000370 87 96 dd 3d 6a ee f5 3d 0c 75 08 be 52 ce b4 bd
       0.108197264 0.120083645 -0.133259 -0.08828415
000380 40 8a c4 bd c8 9b b2 bd 64 6f 6f 3d 6f fd 2e b9
       -0.095966816 -0.08721119 0.05845584 -0.00016688344
000390 bf 94 82 bd 35 79 39 be f1 57 f3 bd 39 32 21 3e
       -0.06376027 -0.18112643 -0.11882008 0.15741815
0003a0 99 71 b6 bd a5 97 a2 bd 24 38 66 3d a8 ec 90 bd
       -0.08908386 -0.0793908 0.056205884 -0.070763886
0003b0 07 09 a8 3d 67 5a ed 3d a3 d7 ae 3d 7c 7b b3 bb
       0.08204847 0.115895085 0.08537223 -0.005477367
0003c0 67 08 44 be c9 50 6a 3e 16 bd 26 3d 55 5b 07 3d
       -0.1914383 0.2288238 0.04070767 0.033046085
0003d0 97 0b 38 3e a2 6c 42 bc 69 3e ff 3b 41 64 0c 3e
       0.17973171 -0.01186672 0.0077894223 0.13710119
0003e0 83 25 1d be 41 4a 8a 3c 38 ad 83 3d 14 78 fb 3d
       -0.15346341 0.01688111 0.06429523 0.122787625
0003f0 84 11 49 be 45 89 76 be 3c 05 01 be 4f a8 5d 3d
       -0.19635588 -0.24075802 -0.12599653 0.05411559

linear_2.bias f4 [64]
000000 fb 4d 08 3d c3 bd a5 3c 03 f9 f2 3d c8 97 4f bd
       0.033277493 0.020232087 0.118639015 -0.05068186
000010 d0 64 02 3c 5b 92 17 3d f0 17 3d bd 06 c8 a5 3d
       0.007958606 0.03700481 -0.046165407 0.08094792
000020 79 ee 92 3d a9 6a b7 bd 58 4c 22 3e 1b 37 cf 3c
       0.07174391 -0.08955891 0.15849435 0.025294831
000030 cc 98 35 3a a5 9c 59 3d 19 12 91 bd 84 8f ae bd
       0.00069273706 0.053127903 -0.0708353 -0.08523467
000040 81 70 10 bd 4c c5 c3 3d 3c f0 a2 bd 62 a0 2c 3d
       -0.035263542 0.09559116 -0.07955977 0.04214514
000050 0e 76 48 bc c0 1f 9b 3d fe 7e 04 bd de fe ab 3d
       -0.012235178 0.07574415 -0.03234767 0.083982214
000060 1c 12 24 3c d1 a3 96 bd 31 9e 8e 3d 15 d1 85 3d
       0.010014083 -0.07355464 0.06963766 0.0653402
000070 14 d9 c1 bc 26 a3 9b 3d 46 1c b9 3d 0d ed 90 3c
       -0.023663081 0.075994775 0.09038596 0.01769116
000080 78 6e b8 3b 45 af d7 3d 8a 0f 8f bd 2b 65 29 bd
       0.0056284033 0.10531477 -0.06985386 -0.041356247
000090 fc 01 23 bd ac fb 20 3d fe 9d a9 bd 60 66 6b bd
       -0.039796814 0.039302513 -0.08282088 -0.05747068
0000a0 c0 6b ca 3d e8 76 8c 3d f6 59 8e bc 46 df a4 bd
       0.09883833 0.06858617 -0.017376881 -0.080503985
0000b0 ae f8 8f bd 40 95 29 bc 1b e3 c1 bc a3 04 97 bd
       -0.07029854 -0.010350525 -0.023667863 -0.07373931
0000c0 31 96 bc 3c 74 f8 1a 3e 1a 90 da 3d e6 c5 84 bd
       0.023020836 0.1513384 0.106720164 -0.06483059
0000d0 6c cd 74 3d 00 7c 8f 3d 6e c1 1d 3d a0 20 99 3c
       0.059766218 0.07006073 0.038514547 0.018692315
0000e0 39 77 7b bd cc 88 2f 3c c4 a7 9a 3b 28 98 31 3d
       -0.061392996 0.010713767 0.0047197063 0.043357998
0000f0 89 4b 21 bb a7 19 91 3c 45 31 18 3d f0 c7 34 bd
       -0.0024611673 0.017712427 0.037156362 -0.044135988

linear_3.weight f4 [10, 64]
000000 de 14 6b 3e 16 79 28 3e b8 6a 58 be a9 3d b7 3d
       0.22957179 0.1645244 -0.2113446 0.089473076
000010 c6 a5 86 bd 9c 01 04 3e 23 04 c1 be 0c 61 c5 bc
       -0.065745875 0.12891239 -0.3769847 -0.024094127
000020 5d 71 a6 3c d8 10 f7 bd fb 1d 19 3e f0 f6 19 bd
       0.020317728 -0.120637596 0.14952843 -0.037589014
000030 db ea a5 be 38 95 00 be d0 3e 0a bd ac 18 02 be
       -0.32405743 -0.12556922 -0.03375131 -0.12704724
000040 dd 27 35 be e5 02 49 3e 72 65 0b bc a8 66 ce bc
       -0.17690988 0.1963001 -0.008508073 -0.025195435
000050 f2 cd 26 3d c6 bb 58 be cb f8 9c bb a0 4d 8e 3c
       0.04072375 -0.2116538 -0.0047904006 0.017370999
000060 ab 0d 83 bd f2 39 2d bd 85 de ec 3d e3 8d a4 bc
       -0.06399091 -0.04229159 0.1156588 -0.020087188
000070 58 e2 51 3e e8 ef 01 bd dd 3c f3 bd 1d a7 10 bc
       0.204965 -0.031722933 -0.11876843 -0.008828905
000080 4e 63 0f be 6e 01 df bc 2a 11 85 3b 47 ff f5 bd
       -0.14002725 -0.027222361 0.004060884 -0.12011581
000090 45 d7 88 be 33 64 dd bd d1 5a 59 bd 5a 76 29 3e
       -0.26726738 -0.10810127 -0.053065125 0.16549054
0000a0 9c 77 f7 bd 22 af ff bd 4d f4 24 3d 53 15 7f be
       -0.120833606 -0.12484576 0.040272046 -0.24910478
0000b0 dd 1a b2 bd 3b 68 c0 3d 5d 9d a7 bd a8 93 36 3e
       -0.0869653 0.093948804 -0.081843115 0.17829764
0000c0 c9 15 5e bd 14 d5 02 be 24 53 85 bd 0d 93 a8 3d
       -0.054219995 -0.12776595 -0.065099984 0.08231173
0000d0 03 c3 2d be 93 2b 2a 3e 9f 1a b2 be e4 35 0d 3e
       -0.16968922 0.16618185 -0.34785935 0.13790089
0000e0 79 bc 70 be 07 b8 1f 3e e1 14 4a be ef 9c ec 3d
       -0.23509397 0.15597545 -0.19734527 0.1155337
0000f0 5a 89 8b be 26 85 fe bd 6c 5a 44 be 33 4b c1 3b
       -0.27253228 -0.1242774 -0.19175118 0.005898857
000100 45 34 98 3d 94 fe 4a be 7e ac 98 3d 2b dd a9 be
       0.074318446 -0.19823676 0.07454775 -0.3317655
000110 ee cb c6 be 76 b1 34 3d f4 0f e4 3d 4d af 7f bc
       -0.3882746 0.044114552 0.11135855 -0.01560576
000120 d8 18 19 bd cc bb 96 3e fd 60 06 be 8b 77 2b 3e
       -0.03737721 0.29440153 -0.13122936 0.16744821
000130 c2 c2 85 3d 5a a1 fe 3d 7f 9b 02 3d 11 62 38 be
       0.06531288 0.12433119 0.031886574 -0.1800616
000140 57 52 5d be 72 c0 08 bd e0 ba a2 3e 55 f1 c4 bd
       -0.21613441 -0.033386655 0.317832 -0.09616343
000150 55 68 11 3e 91 3c 80 3d c7 79 4d 3e 61 3d 73 bb
       0.14199956 0.06261552 0.20065986 -0.0037115442
000160 a7 5d 2e bd fa d6 97 3d ee 98 95 be 23 8f ec bd
       -0.042569783 0.074140504 -0.2921824 -0.11550739
000170 89 f5 e9 bd 2d b6 a8 be 14 10 aa 3d eb 60 a2 bd
       -0.11423785 -0.3295149 0.08303848 -0.07928642
000180 e9 21 c5 3d 3e 01 03 3e 41 51 a8 be e3 46 ea bd
       0.096256085 0.12793443 -0.32874492 -0.11439302
000190 6f 0e f9 b8 58 b2 24 3e 74 54 74 3e b9 d4 84 bd
       -0.00011875934 0.16083658 0.23860341 -0.06485886
0001a0 16 5a 32 be d1 5b 97 bd 63 ac 10 3e d4 03 21 be
       -0.17417178 -0.073905595 0.1412826 -0.15724117
0001b0 d2 6c 00 3e fc 4b 48 be 4c af 8b bd 44 cf f5 3d
       0.12541512 -0.19560236 -0.068205446 0.120024234
0001c0 fa b6 df bc f9 58 81 be 03 c9 4c 3d 52 f6 05 3e
       -0.02730893 -0.25263193 0.049996387 0.13082245
0001d0 d1 97 b9 3b a1 26 08 be 5d 64 0f 3d f6 14 bb 3c
       0.00566385 -0.13295986 0.035007823 0.022837143
0001e0 6e 19 04 3e 63 cd f2 bd 49 90 73 be 9e 44 4a be
       0.12900326 -0.11855581 -0.23785509 -0.19752738
0001f0 4b eb d4 3d 5e 41 2b 3e 07 73 df 3d 67 a5 5b be
       0.10396441 0.16724154 0.109106116 -0.21449815
000200 37 1b b8 bb 6c 85 32 3e 9c cf 91 bd ac be 0b 3e
       -0.0056184786 0.17433709 -0.071196765 0.13646954
000210 ef 4f 23 be 59 e8 b8 bd 66 d6 86 3d a0 20 28 3e
       -0.15948461 -0.09028692 0.06583862 0.16418695
000220 c0 d0 48 3d d9 02 75 3e 51 17 36 3c 9f 89 59 3e
       0.049027205 0.23926868 0.0111139575 0.21243905
000230 5f 1c 62 bd c5 3f 94 bd ba 61 c7 bd 26 16 2a be
       -0.055202838 -0.072387256 -0.09735437 -0.16610011
000240 02 c5 52 bd 0a 8d 20 be 56 c6 b3 be 7d de b5 be
       -0.051457413 -0.15678802 -0.35112256 -0.35521308
000250 c4 74 52 3d b6 75 34 3d ca af 2c bd 3f 9d 9a bc
       0.051380888 0.04405757 -0.042159833 -0.018873809
000260 87 c2 3a 3e f4 28 4c bc 6f ed 21 3e 93 d7 fc 3d
       0.18238269 -0.012460936 0.1581323 0.12345805
000270 1c 03 df 3c aa c0 62 3d 6e 99 40 be 54 80 62 bd
       0.027223162 0.05535952 -0.18808529 -0.055298164
000280 72 4b 80 3d f6 f2 40 3d 91 14 45 3d 4a 9e 3a bd
       0.0626439 0.047106706 0.048115317 -0.045561112
000290 77 cf aa 3b b2 e4 cc bd 70 21 a8 3d bc 5b 5a be
       0.00521272 -0.10004558 0.08209503 -0.21324056
0002a0 34 91 32 3d d7 0d ea 3d 89 2d bb 3d 05 9a 89 3d
       0.043595508 0.11428421 0.091395445 0.0671883
0002b0 4f 56 11 be 44 e6 47 be 44 16 4f be 87 46 25 3e
       -0.1419308 -0.19521433 -0.20223337 0.16140185
0002c0 29 5d 8a be b0 d3 4b bd 09 59 0c be 13 ae 2c be
       -0.270242 -0.049762428 -0.13705839 -0.16863279
0002d0 e5 52 d2 bd 22 8f 99 bd fa 0d 24 3e 85 ad 8a be
       -0.10269717 -0.074980035 0.16020957 -0.2708551
0002e0 f9 81 89 be b9 99 f1 3d 98 64 0d be 8b 11 49 3e
       -0.26856974 0.117968984 -0.13807905 0.19635598
0002f0 c4 23 56 be 20 f8 3c 3e e6 39 98 3d 12 28 0e bd
       -0.20912081 0.18454027 0.07432918 -0.034706183
000300 46 07 ea 3d 22 2e 00 be 40 a9 99 be 9b 3d b3 bc
       0.114271685 -0.12517598 -0.3001194 -0.021879962
000310 df 6f 65 bd a8 00 af 3d d3 f0 12 3e 19 19 a8 3d
       -0.05601489 0.08545047 0.1434968 0.08207912
000320 fd 47 a0 3d 36 be 2b be b2 c1 61 3d 58 75 e1 bd
       0.07826231 -0.16771778 0.055116363 -0.1100871
000330 f6 f4 1b 3e 67 c3 0f 3e 2d 68 39 be 0f 71 19 3e
       0.15230164 0.14039384 -0.18106146 0.14984535
000340 10 2a 87 bd ec ca 01 be 8e 82 cc be a6 dc 9a 3d
       -0.0659982 -0.12675065 -0.39943355 0.075616166
000350 2f 67 29 be d6 77 53 3e aa f5 be be e1 00 2e bd
       -0.16543268 0.20651183 -0.37296802 -0.042481307
000360 81 62 a5 bd dd d1 0c be c5 4f 08 3d 9d f5 35 bd
       -0.08075429 -0.13751931 0.0332792 -0.04442369
000370 f7 d2 ab bd a7 bd b0 3d 30 b1 da 3c 8d 55 12 3e
       -0.08389848 0.08629923 0.026695818 0.14290448
000380 ad 22 db 3d 0f 47 13 be 03 da 2a 3e aa 07 af 3d
       0.10699973 -0.14382575 0.16684727 0.08546384
000390 95 4b a5 3b c7 00 e4 3d 21 a0 d9 3d 21 26 a0 3d
       0.0050444105 0.11132961 0.10626245 0.078197725
0003a0 67 90 12 be 45 7f 26 bb 35 50 05 3e 69 d9 29 3d
       -0.14312898 -0.0025405448 0.13018878 0.041467104
0003b0 a1 0b 73 bd 24 1d 91 be 2b 79 a0 3d 90 40 99 be
       -0.059337262 -0.28342545 0.07835611 -0.2993207
0003c0 58 44 82 be 1d 66 bd bd d8 1d ed bd 29 ea 56 be
       -0.25442767 -0.09247992 -0.11577958 -0.20987763
0003d0 be a2 60 be cd 02 fb 3c 60 b7 a1 3c 3b d9 07 be
       -0.21937081 0.030640984 0.01974076 -0.1326646
0003e0 78 7e 97 3d 9b b6 b3 bd e8 39 55 3e 11 8e 4d be
       0.07397169 -0.087750636 0.2082287 -0.20073725
0003f0 3f 40 40 be c1 db 9d be 0b 08 03 3e 95 75 9f 3d
       -0.18774508 -0.3083172 0.12796037 0.07786099

linear_3.bias f4 [10]
000000 0f 26 c6 bd c2 77 f5 bd 9b 0d 15 be 79 52 af bc
       -0.09675228 -0.119857326 -0.14555971 -0.02140163
000010 25 4b b6 3d 58 d2 00 3d 4d 39 6a bc d3 cd bd bd
       0.089010514 0.0314506 -0.014295888 -0.092677735
000020 7c 8e bf 3c de 51 4d 3d
       0.023383372 0.050126903
